model_484.pth (torch, 64170 bytes, 35 tensors)

down_conv1.0.conv.weight f4 [16, 3, 3, 3]
000000 14 8f 78 3e ab 19 a0 3e df 82 0f bf 60 ec be 3e
       0.2427333 0.31269583 -0.5605907 0.37289715
000010 af 5b 08 3f 52 f7 dc be e9 3a bd bc ac 68 6e be
       0.532649 -0.4315744 -0.02309938 -0.23282117
000020 01 85 47 bf b4 a8 31 3f 0a 0b 92 3f d2 5f 4a be
       -0.7793732 0.69398046 1.1409619 -0.19763115
000030 3f fc 4b 3f 31 24 a5 3f cf 4c de bd 7a c1 4d be
       0.7968177 1.290167 -0.10854494 -0.20093337
000040 b4 45 1b 3e 1a 34 c1 be 64 a1 0b be 58 e4 45 3e
       0.15163308 -0.37735063 -0.13635784 0.19325387
000050 b2 0a 21 be 74 bc 95 bd 41 11 d5 3e 10 d6 6e be
       -0.15726736 -0.07311335 0.41614726 -0.23323846
000060 a3 c2 68 be cb a2 2c bd c0 dd ab bd 88 49 70 3e
       -0.22730498 -0.04214744 -0.08391905 0.2346555
000070 f7 68 91 3d 2c df 10 bf f4 70 b0 3e 20 1a 02 3c
       0.071000986 -0.56590533 0.34461176 0.007940799
000080 2b 1a 2d bf e0 5d 90 3e 44 c5 61 3e bd 20 3e be
       -0.67618054 0.2819662 0.22047907 -0.18567176
000090 b0 18 a2 3e 46 a6 21 be aa c8 f8 be de da ab 3e
       0.3165946 -0.15786085 -0.48590595 0.3356542
0000a0 74 26 0f 3e 88 56 12 bf 30 89 a2 3e ed 8d 31 3e
       0.13979512 -0.57163286 0.3174529 0.17339297
0000b0 b7 f4 a2 be 90 8a 95 3d b1 a1 0e be 40 ea e7 bd
       -0.31827328 0.07301819 -0.13928868 -0.113239765
0000c0 86 cd e2 3d 4d 60 84 3e a4 f6 61 be 2c 49 fe 3d
       0.11074357 0.25854722 -0.22066742 0.124163
0000d0 3b 24 29 bd 24 de 9e be ed 12 4c 3e 24 d9 18 3e
       -0.041294318 -0.31028855 0.19929095 0.14926583
0000e0 84 64 4d be 0a 1a 8e 3e 96 61 8a bb 57 ff be be
       -0.20057875 0.2775424 -0.004223059 -0.37304184
0000f0 af e6 17 3e fd 74 e8 be 62 e5 2b bf 4e 05 9f 3e
       0.14834093 -0.45401755 -0.67146885 0.31058735
000100 c8 f1 14 3d 73 f5 e9 bc 88 3f 86 3d bb 54 fc be
       0.036363393 -0.028559422 0.065550864 -0.49283394
000110 4e 81 b2 bd 0f 20 a7 3c c3 40 52 bf c4 78 ca be
       -0.08716069 0.020401029 -0.8213007 -0.39545262
000120 4c 57 8f 3f f5 e4 13 3f a0 25 c1 3e 79 6c 3c 3f
       1.1198516 0.57771236 0.37724018 0.73603016
000130 32 37 68 3e ea ec d6 3e d6 1c 06 3f 74 64 19 be
       0.22677305 0.41977626 0.5238775 -0.14979726
000140 2b 60 ce be b2 58 f5 be c8 f8 83 bd c6 e5 e7 3d
       -0.40307745 -0.47919232 -0.06443936 0.11323123
000150 51 5d 97 be 76 2e 97 3e 24 9d 93 3e ec b2 0d be
       -0.29563382 0.29527634 0.28830826 -0.13837785
000160 cb 92 a4 3e 9c a3 83 3d 38 1e 10 bf 5b 93 4c be
       0.32143244 0.064276904 -0.5629611 -0.19978087
000170 7b 4a 3b bd 0c c7 03 bf c4 5b b5 3e 70 44 f6 3e
       -0.045725327 -0.51475596 0.35421574 0.4809909
000180 74 db 00 be 5d b0 8d 3e a4 15 32 3e 93 92 15 be
       -0.12583715 0.27673617 0.17391068 -0.14606695
000190 6c 46 e6 bd 2b 4f 3c 3d 44 92 a9 be a1 a0 35 3e
       -0.11243901 0.045973938 -0.33119404 0.17737056
0001a0 5e 4e 76 3e d6 b0 d2 bd 91 99 b9 3e 66 cd eb bd
       0.24053332 -0.10287635 0.36249974 -0.11513786
0001b0 b0 10 eb 3d 08 23 92 3d c4 93 7f be aa 87 90 bd
       0.11477792 0.07135588 -0.24958712 -0.07057126
0001c0 da 82 b9 3e 34 93 c3 bd 35 6d 22 bf 5d e8 96 3e
       0.36232644 -0.09549561 -0.63447887 0.29474154
0001d0 4d ba 5d 3d 88 35 b8 bd 89 6e 44 3e 30 8a 4f 3e
       0.05413275 -0.08994585 0.19182791 0.20267558
0001e0 27 77 c9 be 59 58 15 3f 35 5c 38 3e 6a 88 5f bf
       -0.3934872 0.5833793 0.18003924 -0.87317526
0001f0 18 21 9a bd 52 db 34 bd c4 c0 a7 bd c1 dd 9d 3b
       -0.075258434 -0.044154473 -0.08191064 0.004817695
000200 b7 da 35 be 78 13 ce bd 80 6b a6 3e 20 e5 44 3c
       -0.17759214 -0.10062307 0.3250389 0.012017518
000210 7c c3 3d be 30 7d 3c 3e 61 8b c6 bc 00 46 76 be
       -0.18531603 0.1840713 -0.024236383 -0.2405014
000220 f2 00 0c bf 38 8e 6f bb 62 74 14 be 4c 95 24 be
       -0.5468894 -0.0036553275 -0.14497522 -0.16072577
000230 a4 b8 3a bf 4c f1 f8 3e 86 04 bd bd cf be c1 3d
       -0.7293799 0.48621595 -0.092293784 0.09460222
000240 80 e7 dc bd d8 0e 0f 3e e6 23 78 3e 7d 62 8c bd
       -0.107863426 0.13970506 0.24232444 -0.06854723
000250 b0 18 e9 3e 5d 8b 0a 3d 62 45 3a bd e3 29 49 3d
       0.45526648 0.033824313 -0.045476325 0.049112212
000260 cc 3f b6 3e b9 c2 52 3e 21 5f 7f 3d 56 fa c5 3d
       0.35595548 0.20582093 0.06234658 0.096668884
000270 b0 4c 7e 3e 54 c8 aa 3e e4 13 7d be 9f 6f a1 be
       0.24833941 0.33355963 -0.24714619 -0.31530473
000280 f9 1f 3e be 69 d1 0d be 5a 20 86 be 32 65 ed be
       -0.18566884 -0.13849415 -0.26196557 -0.46366268
000290 cd e4 a6 be 83 de 23 3e 25 30 f7 3e 0c ec 5c 3e
       -0.32596436 0.1600285 0.4827892 0.2157442
0002a0 ed c3 01 3f 0a aa 17 3e 98 a2 b7 3d 9d 21 84 bf
       0.50689584 0.14810959 0.08966559 -1.0322758
0002b0 88 c7 99 be d9 e5 6c be dc dd fe bd 44 d8 fc 3d
       -0.30035043 -0.23134555 -0.1244466 0.12345937
0002c0 45 8d 08 3f f7 61 02 3f 38 9e 68 3e f5 a1 04 3f
       0.5334056 0.5093073 0.22716606 0.51809627
0002d0 e1 b1 e6 be e1 2a 28 bd f6 40 a1 3c c0 dd 2a be
       -0.45057586 -0.041056518 0.019684296 -0.16686153
0002e0 b0 4a bd bd c4 ea 06 3e 3c 32 8e 3c 48 a7 88 3d
       -0.09242761 0.13175493 0.017357938 0.06672531
0002f0 da 70 47 3c 46 09 49 be 58 30 da bd 76 c1 af be
       0.012172902 -0.19632444 -0.10653752 -0.34327286
000300 ea 53 1f 3e 35 f7 b7 3e 4e 9c fe 3d 03 b9 55 be
       0.15559354 0.35930791 0.124321565 -0.20871358
000310 f4 a2 40 bc 85 0c 87 be ff 4f b7 be df 3a 62 be
       -0.011757601 -0.2637674 -0.3580322 -0.2209277
000320 6b 96 2e bf 78 eb 6e 3e dc bf 49 3f 2c bb fe 3d
       -0.6819827 0.23332012 0.7880838 0.12438044
000330 57 28 6e bd e2 e4 85 3d fa 72 ef be 67 4b 82 bd
       -0.05814394 0.065377966 -0.46767408 -0.06362038
000340 e8 e5 18 3e d6 01 55 be 23 a0 cb 3e fc 10 5a 3f
       0.14931452 -0.20801482 0.39770612 0.85182166
000350 29 05 55 3e eb 72 39 3d c8 cf 97 3e 6a 1d 78 bc
       0.2080275 0.04527561 0.29650712 -0.015143732
000360 2b 3d 3e 3e 6c 89 2a be 2e 44 d5 3e 08 32 01 be
       0.18578021 -0.16653985 0.4165358 -0.12616742
000370 70 d4 6f bf 2d 0f a1 3e ad 70 52 3e 17 f5 02 bf
       -0.9368353 0.3145689 0.20550795 -0.5115523
000380 2c 59 eb 3e 43 cd 56 3e 4a 36 9a be 0c 43 0e 3e
       0.4596647 0.20976739 -0.30119544 0.13892764
000390 0c 87 1f be 3b ff 1d bf 23 45 9c 3e 63 2a 7a bd
       -0.1557886 -0.61717576 0.30521497 -0.06107558
0003a0 ec 22 f6 be 28 de 13 3f 15 3b d1 3e b0 0b ee bd
       -0.48073518 0.5776086 0.4086539 -0.11623323
0003b0 4e 7f 7b 3c 9e f2 aa be ba 80 f6 be de ca e7 3e
       0.015350176 -0.33388227 -0.48145086 0.45271963
0003c0 b2 bc f6 3a 3b 99 13 bf 16 a7 57 3e ac 9b 1b 3e
       0.0018824546 -0.57655686 0.21059832 0.15196103
0003d0 44 1e 61 be 37 c9 81 3e b7 05 17 3d 78 31 5f bf
       -0.21984202 0.25348827 0.036870684 -0.8718486
0003e0 73 e1 84 3d 64 23 82 3e 18 b6 e2 bd 4a 4a bc 3d
       0.064883135 0.25417626 -0.11069888 0.09193857
0003f0 58 22 8a 3e 8d 2b a0 bd da 44 25 be d2 b6 ee bc
       0.26979327 -0.07820807 -0.16139546 -0.02913991

down_conv1.0.bn.weight f4 [16]
000000 b7 94 48 3f c0 54 d6 3f b1 af 06 3f 80 81 a5 3f
       0.7835192 1.6744614 0.52611834 1.2930145
000010 c0 6d 93 3f 07 d8 2a 3f 59 12 23 3f f7 23 28 3f
       1.1517868 0.6673588 0.6369987 0.6567988
000020 e0 74 19 40 00 5b 9a 3f ed 54 67 3f 80 26 8b 3f
       2.3977585 1.2059021 0.9036396 1.0871124
000030 40 a1 89 3f d3 4f 4d 3f c0 ba a9 3f 80 44 c5 3f
       1.0752335 0.8019993 1.3260117 1.541153

down_conv1.0.bn.bias f4 [16]
000000 fc 2a 87 3d 36 2e 39 3e dc 44 d8 bd f6 5d 2e be
       0.065999955 0.18084034 -0.10560009 -0.17028031
000010 0c df 89 3d 0b 24 85 be 2b cd b5 be ce 9b 27 3e
       0.06731996 -0.2600406 -0.35508093 0.16368029
000020 d3 c3 7c 3f 73 f7 c1 be 17 7e 06 3f 87 17 9a be
       0.98736304 -0.378841 0.5253615 -0.30096075
000030 c3 7b cf 3e f3 97 d7 3e 7c cb 9c bd 5e 31 6b be
       0.4052411 0.42108116 -0.07655999 -0.22968051

down_conv1.0.bn.running_mean f4 [16]
000000 75 09 45 c0 a8 2d 79 3f af 70 0f bf 6d be a8 3c
       -3.0787022 0.9733529 -0.56031317 0.020598615
000010 13 55 21 3f a7 4d 9e 3e cb b3 03 bf 74 a5 cd be
       0.6302044 0.3091862 -0.5144622 -0.40165293
000020 89 b6 98 3f 72 68 9a 3f a5 9a 84 3e f2 a8 73 3f
       1.1930705 1.2063124 0.25899234 0.95179665
000030 37 71 73 3d 52 01 3e 40 35 50 df 3d 8b 20 9a 40
       0.059434142 2.9688306 0.1090397 4.8164725

down_conv1.0.bn.running_var f4 [16]
000000 39 0a 1c 40 5b f0 27 3f db 67 b5 3f 2e 01 d9 3e
       2.438124 0.6560113 1.4172319 0.42383713
000010 dd 89 90 3e f6 cb c3 3d ec db 17 3f 6b 9b c9 3e
       0.2823018 0.09560387 0.5931995 0.39376387
000020 32 d2 0a 3f 19 be c2 3e cd 50 06 3e f8 0b cd 3e
       0.5422698 0.38035658 0.1311676 0.40048194
000030 bb 0a a3 3e 8f c1 2b 40 b4 7c bd 3e 88 a2 ab 40
       0.31844124 2.6836889 0.37009203 5.3635902

down_conv1.0.attention.conv.weight f4 [1, 1, 3]
000000 68 33 39 be d3 e6 4c bf d1 a1 57 3f
       -0.18086016 -0.8003971 0.8423129

down_conv2.0.conv.weight f4 [32, 16, 3, 3]
000000 ab 79 ba be 50 23 0d be c3 98 ef 3e fd 84 0e bf
       -0.3642095 -0.13783002 0.46796235 -0.55671674
000010 18 5a c1 3d fa 05 eb 3e af 50 fa be 61 0a c3 3e
       0.09441012 0.45902997 -0.48889682 0.38093856
000020 af 53 85 3d 1c 44 ec be bc c4 f7 bd 56 63 43 be
       0.06510102 -0.46145713 -0.12098071 -0.19080862
000030 9c 0c 1a 3f d9 96 52 bd a0 78 83 be 8f d5 9a bd
       0.6017549 -0.05141339 -0.25677967 -0.07560264
000040 17 9e e0 be 2e 94 98 be 2e 94 dd be 01 99 38 be
       -0.43870613 -0.29800552 -0.43277115 -0.18027116
000050 ca 30 32 be c3 9f 7f bf 9c 58 43 bf 5e 8d 6d 3d
       -0.17401424 -0.9985315 -0.7630708 0.057996146
000060 00 92 43 be fe 39 dd be 7e 1d 90 be 44 91 07 3e
       -0.19098663 -0.43208307 -0.281475 0.13239008
000070 7f e8 d6 3e a0 da 65 3e 0f ea a3 be 7c 7f f3 3e
       0.41974255 0.2244668 -0.3201451 0.475582
000080 00 c2 54 3e a1 b1 3f bf 55 6c 09 be 12 61 1b 3e
       0.2077713 -0.74880415 -0.13420232 0.15173748
000090 5b 3d 0d 3f 83 1c 00 be 98 c8 dd 3e e0 a6 5d 3e
       0.55171746 -0.12510876 0.43317103 0.21645689
0000a0 52 d7 86 be 44 c1 0c bf 90 a1 64 3e 00 cb 5b bf
       -0.2633615 -0.549824 0.22327256 -0.8585663
0000b0 23 0d 97 bf 1c ef 5e be 40 d2 b0 be 7c 58 b3 3e
       -1.1800884 -0.217709 -0.34535408 0.35028446
0000c0 0a 26 41 3e 4c 4d d5 be 50 ff 8b 3e 46 28 ad 3e
       0.18862167 -0.41660535 0.27343225 0.3381979
0000d0 a0 8c b0 3d 57 02 02 bd 7d 28 1e 3e ec 81 60 bd
       0.08620572 -0.031740513 0.15445133 -0.054811403
0000e0 f2 68 c6 be 21 51 a5 be 74 a0 cf b9 b4 61 e3 3c
       -0.38751942 -0.3228846 -0.00039601664 0.02775655
0000f0 f0 10 d4 be ca 43 8f be 4d 70 d6 3e 40 c8 05 bf
       -0.41419172 -0.27981406 0.41882554 -0.5225868
000100 75 cb 21 be bc 0c c5 bd 68 91 59 3e 84 24 fe bd
       -0.15800269 -0.096215695 0.21246874 -0.124093086
000110 c8 24 bb 3d ec 0e 46 3e a6 5c 10 3f 38 22 1f 3d
       0.09137875 0.1934163 0.5639137 0.038850993
000120 7c 28 9c 3e c7 84 b3 3e 40 36 77 3e 32 60 a5 3e
       0.30499637 0.3506224 0.24141788 0.32299954
000130 e0 05 cb 3e 60 be f0 bd 25 6f 62 bf 51 97 80 bf
       0.3965292 -0.11755061 -0.88450843 -1.0046178
000140 77 02 29 bf 0a 55 cc be b9 07 c7 bc 26 4b 87 3e
       -0.66019386 -0.3990863 -0.024295675 0.2642452
000150 38 23 42 3f 68 28 a0 3e e7 af 10 bd 29 b0 69 3f
       0.7583499 0.31280828 -0.035324004 0.91284424
000160 c3 75 88 3f 9e d9 27 3f 89 25 6a 3d 98 0a 1a bf
       1.0660938 0.6556643 0.057164703 -0.60172415
000170 f6 2c e3 bb 94 6c d6 bc e6 60 19 3d c0 9f e7 be
       -0.00693285 -0.026174821 0.037445925 -0.45239067
000180 a8 72 89 3e 86 65 8d 3e 64 89 af 3d 30 01 30 3e
       0.26845288 0.2761652 0.08571127 0.17187953
000190 d5 3f cf be 09 b0 3e bf f4 08 20 3f 68 7f 84 bd
       -0.40478387 -0.7448736 0.6251366 -0.06469613
0001a0 b1 de 08 bf a8 47 41 3d 01 a4 04 3f 9c 8e 90 3e
       -0.534648 0.047187477 0.5181275 0.28233802
0001b0 ce a3 b7 3e 0e 04 23 3e f8 8d 74 be 1a 07 27 3f
       0.3586716 0.15919515 -0.23882282 0.6524521
0001c0 74 bf 7f 3f 9e 5c 45 be c8 66 71 be 6a b3 be 3e
       0.9990151 -0.19273612 -0.23574364 0.37246257
0001d0 88 78 82 be 6c a3 02 3e ec 46 69 3e 53 6c 36 3f
       -0.25482583 0.12757653 0.22780961 0.7125904
0001e0 02 53 35 3f 4b f6 98 3e b7 2a b6 3e 52 e7 73 be
       0.70829785 0.29875407 0.35579464 -0.2381871
0001f0 85 2b 13 bf 43 14 18 bf 22 ca 20 bf ea 37 5f be
       -0.5748828 -0.59405917 -0.6280843 -0.21798673
000200 c8 13 55 3d ae fb 3d be 6e 5f 99 be 62 3b de be
       0.052020818 -0.1855304 -0.2995562 -0.4340468
000210 38 ee 41 be 00 7a 99 be d0 16 bf bd cc 5c 44 3e
       -0.1893853 -0.2997589 -0.09330523 0.19176024
000220 2e 95 a9 3e e0 d2 80 3e 11 2a 86 3f 92 6d 05 3f
       0.33121628 0.25160885 1.0481588 0.52120316
000230 f7 a9 17 3f 62 c8 6e be 08 d2 5e bf 0f 2f 40 bf
       0.5924372 -0.23318627 -0.8703923 -0.75071806
000240 01 1e e8 be 0c 16 6d 3e 69 00 2f 3f 14 e9 96 3e
       -0.4533539 0.23152941 0.6836 0.294747
000250 b8 3c a6 3e 6c 0f b3 3e ee fd 0d 3e 98 9e 12 3f
       0.324682 0.34972703 0.13866398 0.57273245
000260 5e c6 42 bd 90 d3 a9 3e 1b 62 48 be 52 94 c4 be
       -0.04755246 0.33169222 -0.19568674 -0.3839441
000270 f2 c0 99 3e 5f bc 50 3e 3b ed b0 be d6 17 10 bf
       0.30030018 0.20384358 -0.34555992 -0.5628637
000280 1b 75 54 3e 5c fc 1d 3e 58 2f 87 bd 90 9e fc 3d
       0.20747797 0.15428299 -0.06600827 0.12334931
000290 2d 85 2a 3f d2 0a 74 3c f2 04 d6 be 8c e5 59 3e
       0.6660946 0.014895158 -0.41800648 0.21278971
0002a0 2b 53 ca be 31 df 80 be 08 3b db 3e 40 89 dd bd
       -0.39516577 -0.25170282 0.42818475 -0.10817194
0002b0 d7 1f 60 3f 39 33 36 3f 1e ff 75 bf 13 7e 78 bd
       0.87548584 0.7117191 -0.960924 -0.06066711
0002c0 f6 f9 ad 3e 1c bc 40 bf 2c 4b 76 be c9 9b 9f 3e
       0.33979768 -0.7528703 -0.24052113 0.31173542
0002d0 6d bb 8e 3e 6b 7e f0 be 9c ee 6c 3e 4f f8 55 3f
       0.2787737 -0.4697145 0.23137897 0.83582014
0002e0 16 b6 7f bd f2 06 85 bf ea 9b b8 bd 8e 26 81 be
       -0.06242951 -1.0392745 -0.09014113 -0.25224727
0002f0 a2 41 4b 3e 5a 9a cf be 9b d3 aa bd 0f a4 6f 3e
       0.19849256 -0.40547448 -0.08341142 0.23402427
000300 de 93 09 3f 79 a5 96 bd 64 4b c8 be 17 7a 67 3e
       0.5374125 -0.0735578 -0.39120018 0.22605167
000310 0e c7 82 be 2c 36 ed bd 86 c7 8a be 63 a4 a8 3e
       -0.25542492 -0.11582598 -0.2710535 0.32937917
000320 58 78 94 bd 33 30 1a bf cf dc 22 3f 6e ee ee 3e
       -0.07249516 -0.60229796 0.6361818 0.46666282
000330 e0 b7 2d 3f ac e7 f0 3e e1 f1 8d 3e 9e 7a 77 3e
       0.67858696 0.47051752 0.277236 0.24167868
000340 04 35 c5 bd 7e 5a c9 3e 76 e0 28 3f 48 ab 0a be
       -0.096292526 0.39326853 0.659675 -0.13541901
000350 62 ad 25 3d 18 66 a6 3e 2c fc 76 3e 3d 6c a0 3e
       0.040448554 0.32499766 0.24119633 0.3133258
000360 30 23 ae 3e 46 5d dc 3e 18 85 11 3f 39 72 29 3d
       0.3401122 0.43039912 0.5684371 0.041368697
000370 be 50 52 be 02 18 0f bd a8 79 0d bf 5e 26 31 bf
       -0.20538613 -0.034935005 -0.5526376 -0.6919917
000380 c0 c2 d3 bd 04 40 d3 be b0 8e a5 3e 0b 0c 41 3f
       -0.1033988 -0.41259778 0.32335424 0.75409
000390 7c 3f f2 3e 1c 9b b3 3e 80 40 00 bf 38 f5 49 3f
       0.4731406 0.35079277 -0.5009842 0.788898
0003a0 e7 d8 20 3f 80 39 1d 3e c0 c3 87 bd ec 82 24 be
       0.62830967 0.15353966 -0.06629133 -0.16065568
0003b0 fa c2 c6 be 6a c5 3f 3f 56 09 98 be bd 60 5d bd
       -0.3882063 0.74910605 -0.29694623 -0.054047335
0003c0 ca a6 d5 3e 8d 14 fe bc 56 84 92 3e 50 22 17 bf
       0.41728812 -0.031015659 0.2861659 -0.5903673
0003d0 a6 77 ce 3c 98 b7 7c be 38 cd fc bd 8c 3b 95 bf
       0.025203537 -0.2467941 -0.1234383 -1.1658797
0003e0 7e 19 8f be 6c 02 3d 3e e2 44 78 bf d4 92 0e bf
       -0.27949136 0.18457955 -0.96980107 -0.5569279
0003f0 8d 6d a8 3c af a2 14 3d 00 f1 3e 3e 8e 4a 60 be
       0.02056005 0.03628796 0.18646622 -0.2190344

down_conv2.0.bn.weight f4 [32]
000000 27 81 5b 3f ed 54 67 3f 7d 27 29 3f 8d 1c 57 3f
       0.85743946 0.9036396 0.6607588 0.8402794
000010 19 83 43 3f c0 35 83 3f 15 d6 42 3f 80 6e 11 40
       0.76371914 1.0250778 0.76107913 2.2723694
000020 c0 6e ac 3f 67 51 66 3f 40 17 93 3f 8f 13 6d 3f
       1.3471298 0.8996796 1.149147 0.9260797
000030 40 75 f8 3f 77 05 69 3f 80 18 87 3f 2f 9a 31 3f
       1.9410782 0.91023964 1.0554352 0.6937589
000040 00 08 9b 3f 5d 41 7a 3f 45 f2 4a 3f 99 23 59 3f
       1.2111816 0.97755986 0.79275924 0.8481994
000050 c0 f0 87 3f f5 6d 3d 3f af 7b 72 3f 95 76 58 3f
       1.0620346 0.73995906 0.94719976 0.8455594
000060 c0 58 8d 3f 43 3c 60 3f 00 d0 8a 3f 80 f1 c5 3f
       1.1042709 0.8759195 1.0844727 1.5464325
000070 9f c7 6f 3f 16 17 6e 3f e3 44 7b 3f c0 1a 94 3f
       0.9366397 0.93003976 0.9815199 1.1570663

down_conv2.0.bn.bias f4 [32]
000000 9b cb 1c bf 3f 81 38 bf 76 fe 43 be cb 94 a5 be
       -0.6124818 -0.72072214 -0.19140038 -0.32340083
000010 b3 f1 82 bf 29 29 1f bf a2 54 f5 be f6 5d 2e be
       -1.0230011 -0.6217218 -0.47916132 -0.17028031
000020 bd e9 0c bf e1 fe 12 bf 1d 22 1d bf 73 c6 82 bf
       -0.55044156 -0.57420164 -0.6138018 -1.0216812
000030 0f 53 dc be ff 6f 02 bf cf 82 d1 be 53 4e 91 be
       -0.4303212 -0.5095214 -0.40920112 -0.2838007
000040 96 66 49 be ec f8 da bd 5f 96 be 3e f3 56 ac be
       -0.1966804 -0.10692009 0.372241 -0.33660087
000050 ce 9b 27 3e 23 73 b4 be ce 1d 7e be 17 2b 87 be
       0.16368029 -0.35244092 -0.24816057 -0.26400062
000060 ee 68 80 be 23 b4 df be 0d 6e 1a bf 4e fb 11 3e
       -0.25080055 -0.4369212 -0.60324174 0.14256021
000070 3b 15 63 3f 66 8b 6c 3e 13 d4 37 bd 67 f0 bf be
       0.8870427 0.23100051 -0.044879984 -0.374881

down_conv2.0.bn.running_mean f4 [32]
000000 5f 1b be be f5 05 ee 3d b1 a5 12 bf 1d 33 8b 3d
       -0.37130257 0.1162223 -0.57284075 0.067968585
000010 d3 db 8b 40 7a 00 b5 bf 70 30 2c 3f 04 75 45 c0
       4.370584 -1.414077 0.6726141 -3.085267
000020 12 2c 0a c0 a0 09 94 bf e9 45 9d be a6 69 d5 3e
       -2.1589398 -1.1565437 -0.307174 0.41682166
000030 42 49 87 bf 21 f9 cb bd b0 e5 1f bf 2b 18 88 be
       -1.0569232 -0.09959627 -0.6245985 -0.2658094
000040 9f 73 92 bf ba 44 3c 3f 16 2a 8c bf c2 1a 99 3a
       -1.1441535 0.7354237 -1.0950344 0.0011680948
000050 6e 94 85 bf c9 51 5a bb 9a a1 61 bf 68 2a fd bd
       -1.0435922 -0.0033312908 -0.8813721 -0.12361604
000060 1c 66 a1 bf dd 65 ea bd 79 12 a9 3f f3 ce ab bf
       -1.2609286 -0.1144521 1.3208762 -1.3422531
000070 a0 33 63 bf 83 c1 7c c0 c4 cf 8f 3f aa b2 80 bd
       -0.8875065 -3.949311 1.123528 -0.062840775

down_conv2.0.bn.running_var f4 [32]
000000 43 cf 79 3f 31 02 02 40 fd 73 8e 3f 18 7c a9 3f
       0.9758188 2.0313838 1.1129147 1.3240995
000010 30 33 8f 40 a7 ac 27 40 5f 1e c6 40 28 c5 0f 41
       4.4749985 2.6199129 6.1912074 8.985634
000020 50 aa 37 41 7a 42 6e 3f a0 42 53 40 ad 46 04 40
       11.47908 0.93070185 3.3009415 2.0668137
000030 a9 5c aa 40 69 ea ee 3f eb 48 eb 3f 37 d6 17 3f
       5.323811 1.8665286 1.8381628 0.5931124
000040 7f 21 dc 3f dd cd fc 3f b8 79 28 40 df a8 bc 3f
       1.7197722 1.9750324 2.6324291 1.4739035
000050 ad 5a 0a 40 2d 56 96 3f 3f ea 01 40 49 c5 29 40
       2.1617844 1.1745049 2.0299222 2.6526663
000060 f3 bd 11 40 d2 b4 86 3f 6b 1a 14 41 0f be 9a 40
       2.2772186 1.0523932 9.25645 4.8357005
000070 3b 7a 35 40 aa 89 9b 40 9d 27 52 40 74 81 e7 3f
       2.8355854 4.8605547 3.2836678 1.8086381

down_conv2.0.attention.conv.weight f4 [1, 1, 3]
000000 3b d2 03 3f 44 f8 85 bf 28 9a a3 3e
       0.5149266 -1.046639 0.3195355

up_conv2.0.conv.weight f4 [16, 32, 3, 3]
000000 ae ea 12 3e 00 eb 88 3e fa 9f 1b 3f 8c d1 93 3e
       0.14347336 0.2674179 0.6079098 0.2887081
000010 d9 99 05 bf 28 af ae 3e 60 36 44 be 14 50 a8 be
       -0.5218788 0.3411801 -0.19161367 -0.32873595
000020 92 59 9a be 23 18 59 3d 75 01 8c be 33 69 92 bd
       -0.30146462 0.053001534 -0.27344862 -0.071489714
000030 1e c6 67 be ca fa eb 3d f0 a2 f7 3d d2 55 25 3d
       -0.2263417 0.115224436 0.12091625 0.040365048
000040 24 b6 34 3e 0e 29 b0 3d 78 91 f8 3d da 9b ab be
       0.17647606 0.086015806 0.12137121 -0.33517343
000050 7e 06 71 3e b8 8c ca be 0c 6e 9d bf ce 11 b6 3c
       0.23537633 -0.39560485 -1.2299209 0.022225287
000060 bf b6 51 3f 7a 08 7a 3e e1 3e 66 3d 50 ce b0 3e
       0.81919473 0.24417296 0.05621231 0.34532404
000070 64 72 dc bd 71 8e 5f 3d 2b cd 23 3f a2 3f 90 be
       -0.10764006 0.054579202 0.63984936 -0.28173548
000080 8f 7f 9a 3e 92 86 0b 3f 78 b3 33 3f 90 02 30 3f
       0.30175444 0.54502213 0.7019572 0.6875391
000090 7f 6c 85 bf 9c cd da be 75 fb 15 bf 88 52 7d 3e
       -1.0423735 -0.42734993 -0.5858682 0.24738514
0000a0 a4 fa 9c bf 01 5b 86 bf f2 42 ec be 6f ca 43 bf
       -1.226399 -1.0496522 -0.46144825 -0.76480764
0000b0 68 d0 58 bf 6e 1d 90 3e ae 5d 9d 3d 5e 45 fc be
       -0.84693 0.28147453 0.076838836 -0.49271673
0000c0 46 0a 9c 3e 6e 4f 23 3f b4 c6 b1 3e 3f c9 02 3d
       0.30476588 0.63793075 0.3472191 0.031930204
0000d0 d6 97 83 3d 66 a0 6d be d2 30 c8 be da 46 36 3c
       0.06425445 -0.23205718 -0.39099747 0.011125291
0000e0 90 71 8a be d0 83 97 bd 1e ee 2f bf 3a ab 11 bf
       -0.27039766 -0.07398188 -0.68722713 -0.56901896
0000f0 8c 33 e6 bd 98 61 b4 be 40 47 3b be 1e 88 34 be
       -0.112403005 -0.35230708 -0.18288898 -0.1763005
000100 f0 c1 42 3e b8 8f d2 3d 08 57 7a 3e 27 19 97 bf
       0.19019294 0.102813184 0.24447262 -1.1804551
000110 b5 ec 04 bf b3 19 8f be 55 64 51 bf 3c 1f 2c be
       -0.51923686 -0.27949294 -0.8179372 -0.1680879
000120 2c 08 cf be 89 23 7d bf 49 11 13 3e c4 68 9b bf
       -0.40435922 -0.9888235 0.14362063 -1.2141347
000130 fe f9 03 3f a6 b1 90 3e 46 8c 90 3e 4c 86 c8 be
       0.5155333 0.28260535 0.2823202 -0.3916496
000140 a3 c6 37 3f 08 0d 65 3e 2a 7e 02 3e fc a3 18 bc
       0.7178747 0.22368252 0.1274344 -0.009316441
000150 1a bd 88 3e 11 6d 46 3f 7a 7e 33 3f 90 63 cd bd
       0.26706773 0.7751017 0.7011486 -0.10028756
000160 a1 0d 28 bd 1d e2 00 3f 46 68 38 3e fc 0c 91 3e
       -0.041028623 0.5034502 0.18008527 0.2833022
000170 52 cd 10 3e 4b e5 c1 bd 9b 09 89 3f ec 00 41 bf
       0.14140823 -0.09467562 1.0706056 -0.7539203
000180 d4 65 de 3e 70 9a 19 3e a7 17 8c 3e 66 be 39 3e
       0.43437064 0.1500032 0.27361795 0.18139037
000190 0d 0c 24 3e 2e 74 85 3e f9 dc 96 bb f9 c1 cd be
       0.16020222 0.260652 -0.0046039787 -0.40187052
0001a0 14 d2 a1 be 83 a5 82 3d 0c b3 4e be 28 d2 a4 3e
       -0.3160559 0.06379225 -0.20185488 0.32191586
0001b0 52 0c 6f be 68 65 97 3d fd 5a d5 be 07 c4 f0 3b
       -0.23344544 0.073923886 -0.4167098 0.007347587
0001c0 e2 4f 84 bf 48 63 33 3e d0 c2 3b 3f af cb 93 3c
       -1.0336878 0.17518342 0.73344135 0.01804146
0001d0 f0 b3 10 3e 08 4d 33 3e cd 41 92 be 63 dc 12 3f
       0.1413114 0.17509854 -0.28565827 0.57367533
0001e0 a6 3b 72 bd ee e7 16 bf 0d a2 3c 3f bc 38 8c be
       -0.059138916 -0.58947647 0.7368477 -0.27387035
0001f0 b2 21 28 3f 34 a3 5c 3f ba 36 06 3f 9e 03 d4 3e
       0.65676415 0.8618653 0.52427256 0.4140901
000200 20 1a b5 3d 5f 2e ea bc 1a 40 a1 3e 49 1f 54 3f
       0.088428736 -0.028586565 0.31494218 0.8286024
000210 d5 6a 19 3f 4a d2 4c bb d7 f5 b9 3e be 31 7b 3e
       0.5992864 -0.0031253272 0.36320373 0.24530694
000220 27 6d 2d be d8 fe da 3d b6 5c 8d 3e e2 77 9f 3e
       -0.1693617 0.10693139 0.27609795 0.3114615
000230 52 42 e4 be 8e 5f bc 3e b6 b7 e6 3e e2 88 e3 3e
       -0.44581848 0.36791652 0.45062035 0.4444037
000240 e1 86 94 3b b6 ef be bd ca 29 8e be d3 71 a8 3e
       0.0045326804 -0.09323065 -0.27766258 0.3289934
000250 42 ca 0d bf be 55 0e bd 95 93 51 3e fe 75 07 3e
       -0.55386746 -0.03474974 0.20466454 0.13228604
000260 3f 52 eb 3e 41 73 11 3d e8 60 5f 3e c8 f4 cd bd
       0.45961186 0.035510305 0.2181431 -0.10056454
000270 3a cb 1b 3e 09 b8 18 3f af db 27 3f 94 c8 9a 3d
       0.15214244 0.59655815 0.65569586 0.075577885
000280 70 7c 18 3e 7c ca 8b bd 0e 8c fe 3d a6 d1 94 3d
       0.14891219 -0.0682573 0.12429057 0.0726655
000290 a6 0b 70 3d 70 cf 94 3c c5 6c 9b be b4 46 3b be
       0.05860486 0.01816532 -0.30356422 -0.1828869
0002a0 e4 30 5c be 0a 0b 9b be 20 d1 95 be 8d 6c ac bd
       -0.21503025 -0.3028186 -0.29261112 -0.08419142
0002b0 b0 8d dd 3d 8b df 4a 3d a2 bb 09 be 99 b6 be be
       0.1081804 0.049529593 -0.13450482 -0.37248686
0002c0 e6 43 97 bf db 59 a1 3d fd 56 24 bf 34 02 06 bf
       -1.1817596 0.07878467 -0.64195234 -0.5234711
0002d0 7d c9 07 3d 0d 4b 18 bd d9 4b 4e bd 53 a3 b1 bd
       0.03315114 -0.03718095 -0.050365303 -0.0867373
0002e0 df 95 8a 3e b2 a3 0e bf 98 8a d2 bd c8 c9 8b 3e
       0.27067468 -0.5571853 -0.10280341 0.27302384
0002f0 37 ac 54 3d 7f 15 a4 3e 6a 09 60 3e fc 83 8b 3e
       0.05192205 0.3204765 0.21878591 0.27249134
000300 78 71 b4 3d 88 35 86 3f ae 36 5e 3e 38 6a a6 bd
       0.08810705 1.0485086 0.21700546 -0.08125728
000310 2b c7 a8 3e 9c 51 6d be ed 14 09 3f 31 dd bf be
       0.32964453 -0.23175663 0.53547555 -0.37473443
000320 25 55 99 3e 72 4d 24 bd e4 41 0a bf 03 9a 3b bf
       0.29947773 -0.04011292 -0.5400679 -0.7328188
000330 c0 2f 99 bd 1e c4 b7 be 9b 16 e3 3e 78 d3 a8 be
       -0.07479811 -0.35891813 0.44353184 -0.32973838
000340 82 40 e7 3e e4 9f 95 bc 08 3f 93 3d ad ed 27 bf
       0.45166403 -0.018264718 0.07189757 -0.6559704
000350 b0 b1 a9 bd 68 b8 35 bf c4 e4 6b bf 87 ad 18 bf
       -0.08285844 -0.70984507 -0.92145944 -0.5963978
000360 f0 f1 66 3e 4a e9 7d 3e ed d9 4b be 5e 7b 30 be
       0.2255323 0.24796024 -0.19907351 -0.17234561
000370 f8 ec 00 3f 42 1f 6d be 2a 95 97 be ec 92 6f 3e
       0.50361586 -0.23156455 -0.2960599 0.2339589
000380 88 67 d9 3d 64 77 6d 3e f8 10 c1 3e a8 f0 25 bd
       0.1061545 0.23190075 0.3770826 -0.04051271
000390 21 25 1f 3f 9d cc 83 3f d4 6a f4 3e 49 58 7f 3d
       0.6216603 1.0296818 0.47737753 0.062340055
0003a0 02 e7 c4 bd c0 59 bb bc b2 bb b6 3e 9d cd 14 bc
       -0.09614374 -0.022869945 0.35690075 -0.009082225
0003b0 36 1f 12 3e cf 35 d2 3d 45 37 22 be 77 5d 17 bf
       0.14269719 0.102641694 -0.15841396 -0.5912699
0003c0 b4 73 eb bd c3 2d 04 3e b4 01 87 be 3f 5d d8 3e
       -0.11496678 0.12908082 -0.26368487 0.4225864
0003d0 06 d1 68 3e cd 16 b6 3b 8b 64 0c bd f1 95 88 bf
       0.22735986 0.0055569173 -0.034275573 -1.0670758
0003e0 6c 8c 06 be 2e e2 32 3e 7d 82 db be 6e 09 0b 3f
       -0.13139504 0.17469093 -0.42872992 0.54311264
0003f0 34 76 7c 3e c4 60 fe 3d 0b f9 80 3d ea aa 61 3e
       0.24654466 0.124208 0.06297501 0.22037855

up_conv2.0.bn.weight f4 [16]
000000 cc f5 4b 3f af f9 1b 3f 4d 8d 77 3f 51 3a 78 3f
       0.7967193 0.6092786 0.9669998 0.96963984
000010 c0 f7 89 3f 40 47 88 3f e7 b0 50 3f be 27 9b 3e
       1.0778732 1.0646744 0.8151993 0.30303758
000020 40 db cb 3f 40 bd 91 3f 40 10 91 3f bf ee 49 3f
       1.5926285 1.138588 1.1333084 0.7887992
000030 6d b4 51 3f c0 8f 84 3f 3c a1 33 3f 31 d2 72 3f
       0.8191593 1.0356369 0.701679 0.94851977

up_conv2.0.bn.bias f4 [16]
000000 6e a4 42 be 6b af 14 3f 03 4c da be 7d 9b 58 3f
       -0.19008037 0.58080167 -0.42636117 0.84612256
000010 8c c0 ca 3d 4c 31 eb bd b3 c7 cc be b3 c2 a6 3f
       0.09900007 -0.11484012 -0.39996108 1.3028167
000020 6e e5 6d 3e ca 16 fc 3e ec b7 af 3d b3 b3 89 bf
       0.23232052 0.49236137 0.08580002 -1.0757965
000030 5e 31 6b be 73 cd 84 3f 73 cd 84 bf 33 11 8c bf
       -0.22968051 1.0375198 -1.0375198 -1.0942749

up_conv2.0.bn.running_mean f4 [16]
000000 25 cc 2b bf 96 e6 01 3c 55 b1 69 bf b3 3f 0b 3f
       -0.67108375 0.007928511 -0.9128621 0.5439407
000010 0d bb ee 3e ef a5 27 3d 15 af 9a bf d6 51 6f 3f
       0.46627083 0.04092973 -1.2084681 0.93484247
000020 aa d3 43 bf d2 41 40 bf d8 0f 59 bf 47 c4 56 c0
       -0.7649485 -0.75100434 -0.847898 -3.3557298
000030 e0 20 d6 bf f3 7b 8c 3f e4 ba 0a c0 a5 2b 9d 3d
       -1.6728783 1.0975326 -2.167657 0.0767434

up_conv2.0.bn.running_var f4 [16]
000000 d5 53 d7 3f dc fe e9 3f f2 5c 1a 40 63 e2 84 40
       1.6822459 1.8280902 2.411923 4.152635
000010 f3 90 28 40 bf 81 7a 3f a4 08 aa 3f 27 5f 96 40
       2.633847 0.97854227 1.3283887 4.6991153
000020 d9 2a bc 3f 01 3c 19 40 df 60 36 40 00 cb 5a 40
       1.4700576 2.3942873 2.8496625 3.4186401
000030 a9 a5 b3 3f 01 7b 09 40 7d f8 f4 3f cc 00 08 40
       1.403493 2.1481326 1.9138333 2.1250486

up_conv2.0.attention.conv.weight f4 [1, 1, 3]
000000 dd c2 05 3f 1c 8c 2b 3f c1 fd d2 3f
       0.5225046 0.67010665 1.648369

up_conv1.0.conv.weight f4 [16, 16, 3, 3]
000000 90 33 65 3e 48 8f cc bd 4a d8 59 3e f4 4f 57 bc
       0.22382951 -0.09988266 0.21273914 -0.013141621
000010 46 a5 97 be bf 6a ae 3e 46 d1 ec 3e c7 6f b1 be
       -0.2961828 0.34065816 0.46253413 -0.34655592
000020 9c e6 de 3e 88 a2 e1 3e d8 c9 31 3f c6 a9 4a 3e
       0.43535316 0.44069314 0.69448614 0.19791326
000030 20 11 bb 3e 65 1b a1 be e9 f7 88 be 44 84 98 3e
       0.36536503 -0.31466213 -0.2675164 0.2978841
000040 a8 d0 56 3e 92 4a 84 3e 48 46 3f 3d 48 9c 30 3f
       0.20978034 0.25838143 0.046697885 0.68988466
000050 dd de ad 3e aa 2f 5f 3e e2 1e 6d 3f 10 6f e0 3e
       0.33959094 0.21795526 0.9262525 0.43834734
000060 18 58 53 3e 9d 43 e4 3e 57 16 a7 3e d0 d6 57 3c
       0.20639074 0.44582835 0.3263423 0.013173774
000070 2f 39 8c 3e 37 1e 89 3e e9 a5 69 3d 25 61 b1 3e
       0.27387378 0.26780865 0.05704299 0.34644428
000080 c8 d9 9b be eb c7 38 3d d8 94 70 3e 93 94 e7 be
       -0.3043959 0.04511253 0.2349428 -0.4523054
000090 4f fa ec bd b5 b0 94 3e 74 60 c7 39 70 b4 fa 3d
       -0.1157118 0.29041067 0.000380281 0.12241447
0000a0 a6 06 1b 3f 10 2e 6e 3f e7 98 0d bf 62 e3 dc be
       0.6055702 0.93039036 -0.55311435 -0.4314223
0000b0 54 a5 e4 be d2 d2 fc 3e ab d3 c8 3d 62 65 1b 3f
       -0.44657385 0.49379593 0.098059975 0.6070157
0000c0 c4 0b 82 3d fc 27 5c 3d 2b ae de 3e ff 0e 62 3f
       0.063499 0.05374907 0.43492255 0.8830413
0000d0 c4 4c c3 bd 10 d2 6f bc b3 14 4b be 43 45 b7 bd
       -0.09536126 -0.014637485 -0.19832115 -0.089487575
0000e0 20 9b 18 bf 7a fb 13 bf 12 da cf be fa 83 06 bf
       -0.596117 -0.578056 -0.40596062 -0.5254513
0000f0 d4 2f 7a be eb d9 37 be 50 a3 ab 3e 43 f7 e8 3c
       -0.24432307 -0.17954223 0.33523035 0.028438216
000100 11 1a c0 3e 9c 63 a5 bd db 3f 99 3b 81 dc 50 3f
       0.37519887 -0.080756396 0.0046768016 0.8158646
000110 d8 a5 ac 3e 80 1b 94 be 10 2f 55 bd 7f b5 4f bf
       0.3372028 -0.2892723 -0.052046835 -0.81136316
000120 94 c2 55 be 4a e7 ca 3c 34 4d 22 be 43 40 25 be
       -0.20875007 0.02476849 -0.15849763 -0.16137795
000130 14 65 c9 3d ab 32 4d 3d b4 42 9b bd 1a ec 9f 3e
       0.09833732 0.05009715 -0.07581082 0.3123482
000140 59 71 ee be 13 09 9b 3c 80 f7 0e 3e eb ee 87 3e
       -0.46570852 0.018925225 0.13961601 0.26549467
000150 d1 0f a3 bd a5 bc a7 3e dc f4 97 3e 7c 77 b1 3e
       -0.07962001 0.32761112 0.29679 0.34661472
000160 4c 33 2f 3e b8 db 6c bf de 16 24 be d0 f2 ba bd
       0.17109412 -0.92522764 -0.16024348 -0.09128344
000170 ab 07 c7 be 70 84 38 bf 16 7d 16 3e a9 cd 44 bf
       -0.38873038 -0.72077084 0.14696154 -0.7687631
000180 75 f1 88 bc 38 bb de bd 6c d6 e6 3d 5c cc ea be
       -0.016716698 -0.10875553 0.112713665 -0.4585904
000190 6e d1 9f bf f5 65 77 3f 9c bf c3 bf 10 d8 17 c0
       -1.2485788 0.9663995 -1.529285 -2.3725624
0001a0 40 ed 4c 3e 07 03 2b bf 6d a1 6c bf ed 02 34 bf
       0.20012379 -0.66801494 -0.92433816 -0.70316964
0001b0 b2 29 00 bf 90 b3 4a be f2 c7 a9 be 7e db 63 be
       -0.5006362 -0.1979506 -0.3316036 -0.22251698
0001c0 b0 33 8f 3c 3e 83 4a 3e 05 d3 a5 bd 38 23 17 be
       0.017480701 0.19776627 -0.080968894 -0.14759529
0001d0 e7 9b 4f bf b0 9e d1 3d ec bc 23 be fd 33 85 3e
       -0.81097263 0.10235345 -0.15990037 0.26016226
0001e0 78 eb a8 bd f3 44 83 be 82 9c 06 bf 0f 1c 85 3e
       -0.08248037 -0.25638542 -0.5258256 0.2599797
0001f0 de a7 c0 3e 2e e5 44 3f d0 24 a1 3d 88 f6 3f 3e
       0.37628073 0.769122 0.078683496 0.18746388
000200 41 f1 ff 3e af d1 7d 3e 5b bc a4 bf 47 1b 07 bf
       0.4998875 0.24787019 -1.2869982 -0.52775997
000210 f8 0b 39 be d5 71 5b bf dc a9 19 be 71 72 00 bd
       -0.18070972 -0.8572057 -0.15006202 -0.03135914
000220 2e f5 53 3e 00 8d 4c be 81 86 09 bf ea 9f db be
       0.20698997 -0.19975662 -0.5372086 -0.42895442
000230 e2 fb 5b bf d4 ad 5f bf d1 e0 0b bf fa da 5a bf
       -0.8593122 -0.87374616 -0.5463992 -0.8549038
000240 75 7e 13 bf a9 78 9a bf 6e d3 c8 bf 89 36 2a bf
       -0.57614833 -1.2068073 -1.5689523 -0.66489464
000250 91 ed 7f bf 3f bb c8 bf c0 fc 63 bf 41 86 8a bf
       -0.9997187 -1.5682143 -0.8905754 -1.0822221
000260 bc 29 6b be 22 e7 38 3e 9c fb 06 3d 1d 11 12 3f
       -0.22965139 0.1805692 0.032954797 0.5705736
000270 5c 25 07 be 8c 07 af be bc 73 74 be 88 b5 83 3e
       -0.13197845 -0.34185445 -0.23872274 0.25724435
000280 b4 11 06 3e 8d f7 a5 3e cc ce 24 3e 98 ff 9d 3d
       0.1309269 0.3241543 0.16094512 0.07714766
000290 97 51 33 be 09 0d 69 3d a4 37 05 3e 88 ea 99 be
       -0.17511593 0.056897197 0.13009506 -0.30061746
0002a0 7c 4e 37 be 08 4b 01 be e4 3a 5e be a8 d0 b3 be
       -0.17901033 -0.12626278 -0.21702152 -0.3512013
0002b0 0f 92 aa be cc 6e 04 be 14 85 4c 3d a8 94 cf 3d
       -0.3331456 -0.1293289 0.0499316 0.10135776
0002c0 ac d0 81 bd 27 de aa 3e a0 37 50 3e a6 35 30 3d
       -0.06338629 0.33372614 0.20333719 0.043019913
0002d0 9c 33 57 3e 6b 30 1b bf 2f f6 11 3f ee 06 83 be
       0.21015781 -0.60620755 0.5701627 -0.25591224
0002e0 e3 fc 8c bf f4 11 70 be 9e a0 1a 3e ca 1e 25 bf
       -1.1014675 -0.23444349 0.15100333 -0.64500105
0002f0 50 67 da be 18 47 47 bf 1f bf da be 2c 73 21 bf
       -0.42656946 -0.77842855 -0.4272394 -0.63066363
000300 0d f2 d8 3d 14 cb 59 3e ba 79 ed ba e0 2c d3 bd
       0.105930425 0.21268874 -0.0018117942 -0.103112936
000310 8e ed e3 be 06 41 5c bf 64 16 d0 3d 08 c4 c1 3c
       -0.44517177 -0.8603672 0.10160521 0.023653045
000320 c4 fe 64 be b0 5c a9 be f8 63 15 be ce 16 de 3e
       -0.2236281 -0.33078527 -0.14588916 0.43376774
000330 2e 72 34 3e 06 38 18 3e b8 96 9c bd 44 6c df 3e
       0.17621681 0.14865121 -0.07645935 0.43637288
000340 75 40 95 3e c4 c3 c0 be fb 7e b4 bd 25 f2 03 3d
       0.2915074 -0.37649357 -0.08813282 0.03221335
000350 a2 e3 13 bf a3 a0 93 3b 9c 6c 20 3e 2d 85 19 bf
       -0.57769215 0.0045052334 0.15666431 -0.59968835
000360 f1 5e 29 3e 50 e0 81 bd 0d 3a 82 3e 3c 2c a2 bd
       0.16540124 -0.06341612 0.25434914 -0.07918593
000370 1c 96 a0 bd dc 62 9d bd b8 35 00 be c1 a0 0f 3e
       -0.07841131 -0.076848716 -0.12520492 0.14026166
000380 ec 45 09 bf 42 c3 6d be 7b 31 a1 be 70 73 9e be
       -0.5362232 -0.23219016 -0.31483063 -0.30947447
000390 5e 84 8b 3e 94 f5 ce 3d 40 6a 3c bd 30 48 f5 3d
       0.27249426 0.10105434 -0.045999765 0.11976659
0003a0 da fd 99 be 48 97 cc 3c e4 2b 9d 3e 82 ea bb be
       -0.30076486 0.02497448 0.30697548 -0.36702353
0003b0 a4 79 87 3e 79 ba c4 3e 0c 78 68 3e a4 72 01 bc
       0.26459992 0.38423517 0.22702044 -0.007900868
0003c0 e6 d3 8f bc 30 76 75 be e4 40 4c be 3a 27 8f 3e
       -0.017557096 -0.23970866 -0.19946629 0.27959615
0003d0 ba 7f 64 3e 38 de e3 3d 68 8c d2 3d dc fc ab 3e
       0.22314349 0.11126369 0.102806866 0.33591354
0003e0 b4 91 5e 3c 04 6f 91 3e 7a 7a cd 3e a6 09 18 3e
       0.013584543 0.2840501 0.40132505 0.1484743
0003f0 f6 00 56 3e 14 75 f6 3d be 40 3e 3e c5 c9 9a be
       0.20898804 0.1203405 0.18579385 -0.30232063

up_conv1.0.bn.weight f4 [16]
000000 57 1b 0d 3f 80 b1 9a 3f c0 30 b3 3f 59 94 79 3f
       0.5511984 1.2085419 1.3999252 0.97491986
000010 33 06 07 3f 25 cb 70 3f d9 71 0d 3f c0 43 87 3f
       0.52743834 0.94059974 0.5525184 1.0567551
000020 50 43 62 3f fd 08 6a 3f a9 96 30 3f 00 1c 88 3f
       0.8838396 0.91419965 0.6897989 1.0633545
000030 c7 89 76 3f 83 8a 14 3f 00 ec 92 3f 04 2b 2a 3f
       0.9630398 0.5802385 1.1478271 0.66471887

up_conv1.0.bn.bias f4 [16]
000000 9e 7f 1f 3e 0b b8 2f bf a7 13 4a bf ab c0 4a bf
       0.15576026 -0.686402 -0.7893624 -0.7920024
000010 13 53 5c 3f d2 70 fd 3e 2e 15 63 be 27 61 e0 be
       0.8606426 0.49500138 -0.22176048 -0.4382412
000020 8f c4 1a bf 35 71 4c bf 36 2e 39 be c3 0f 7a bf
       -0.60456175 -0.7986024 -0.18084034 -0.976803
000030 79 ee 57 3f b3 bd d6 3f b3 e6 c9 bf 33 8e 97 3f
       0.84348255 1.6776642 -1.5773529 1.1840271

up_conv1.0.bn.running_mean f4 [16]
000000 4c 7f 02 40 88 ea 54 c0 7a 06 08 c0 ea 00 a4 bf
       2.0390196 -3.3268147 -2.1253953 -1.2812779
000010 d9 76 94 c0 11 1a 66 c0 90 7c 1d c0 6e 91 30 c0
       -4.639508 -3.595341 -2.4607277 -2.7588763
000020 14 49 fe c0 2e 63 13 bf 3f af c6 3e 13 9b 90 c0
       -7.9464207 -0.5757321 0.38805577 -4.51893
000030 e2 52 11 bf ef d9 00 c0 7f cc 82 3f 8e 17 03 bd
       -0.56767094 -2.0133016 1.0218657 -0.032004885

up_conv1.0.bn.running_var f4 [16]
000000 4d b2 87 40 3f dd 26 41 6e e5 b4 41 cc a5 95 40
       4.240515 10.429015 22.612026 4.676489
000010 c4 3c 46 41 b2 e1 61 41 87 9a a6 40 59 a9 17 41
       12.389835 14.117601 5.206363 9.478845
000020 8a 50 f4 40 6d de d5 40 cf e2 ee 40 7e 02 0d 41
       7.6348314 6.6834016 7.4651866 8.813108
000030 b3 53 78 41 ce 65 72 41 e4 42 fd 40 bf d1 96 41
       15.520434 15.149855 7.9144154 18.852415

up_conv1.0.attention.conv.weight f4 [1, 1, 3]
000000 51 ef 98 bf 4e 4e ed 3e 2a 6b 5d 3f
       -1.1948034 0.46348804 0.86491644

end_conv.0.conv.weight f4 [8, 16, 1, 1]
000000 bb 7d 05 3d d7 23 d1 3f 7e 86 23 bf 65 82 c5 be
       0.03259061 1.6339062 -0.63877094 -0.38576046
000010 de dd cf be 6f fe 3d 3f 64 5a ed 3d 9e 48 c7 be
       -0.4059896 0.7421636 0.11589506 -0.3892259
000020 7e 92 9a be d8 a4 1f 3e 40 57 be 3d 6e 39 af 3f
       -0.3018989 0.15590227 0.09293985 1.3689401
000030 09 7a b4 3d c6 70 03 bf b7 e5 a7 3f 50 f5 a4 3e
       0.08812339 -0.51343954 1.3116978 0.3221841
000040 d3 38 c7 3e 58 b0 c8 3f a7 d0 d8 bf d4 21 74 be
       0.3891054 1.5678816 -1.6938676 -0.2384103
000050 e8 72 00 bf ed 64 2d 3f aa 74 f5 3e f0 e2 ec 3e
       -0.50175333 0.67732126 0.4794057 0.4626689
000060 b8 96 81 3f 38 f4 c9 be 68 08 2a be e0 2d 4a bf
       1.0124121 -0.39444137 -0.16604769 -0.7897625
000070 56 ff bc 3e 01 83 d9 be e0 5b a7 be d6 f5 d5 3e
       0.36913556 -0.4248276 -0.32687283 0.4178912
000080 85 d8 35 bf dd 4e 03 c0 16 c4 fb bf 05 87 1e bf
       -0.7103351 -2.0516884 -1.9669216 -0.61924773
000090 f9 e1 21 3f ed a1 bb bf 4a a0 d4 3e 31 8d 4b 3f
       0.6323543 -1.4658791 0.4152854 0.79512316
0000a0 f2 b7 51 be 8b f3 0b 3d 36 11 d1 be 30 8f 3b 3f
       -0.20480326 0.034167808 -0.40833443 0.7326536
0000b0 0f 55 53 be 70 c5 ce 3e 54 65 6a 3e 45 2b 79 3e
       -0.20637916 0.40385008 0.22890216 0.24332912
0000c0 93 1a 15 bf e3 09 65 bf 0a 73 3d bf 1c bd 54 be
       -0.58243674 -0.8946821 -0.7400366 -0.20775265
0000d0 f5 fa 87 3f 51 f7 4e bf 9e 6c a8 3e 67 10 56 3f
       1.0623461 -0.80846125 0.32895368 0.8361878
0000e0 e3 30 ea 3c 54 ce 43 bd 88 b1 93 bf 00 ad 61 3e
       0.028587764 -0.04780419 -1.1538553 0.2203865
0000f0 d0 33 36 be 6c 2c d4 3d dc 68 79 bf b8 f6 57 3e
       -0.17793202 0.10360035 -0.9742563 0.2109021
000100 bd ac 44 bf 25 c5 9e bf 4e b4 b4 bc 1d d3 99 3e
       -0.7682608 -1.2403914 -0.022058632 0.3004388
000110 0a aa 74 be 9b c1 7b be c8 98 32 bf 50 c1 5d bf
       -0.2389299 -0.24585573 -0.69764376 -0.86623096
000120 94 8a a2 be 6d 95 83 bf c8 2b a4 be 38 3a f0 3d
       -0.31746352 -1.0279976 -0.32064652 0.11729854
000130 cb 32 a2 be 6e 9e 91 bf 48 3e c3 3e 92 a3 ae 3e
       -0.31679377 -1.1376474 0.38133454 0.3410917
000140 3a 0c 65 bd 10 86 5c 3f 39 bf f0 be db 2c da be
       -0.055919863 0.86142063 -0.4702089 -0.42612347
000150 ba 99 08 bf a0 bb 7f 3f 14 6e ad 3e 30 90 a8 be
       -0.5335957 0.9989567 0.33873045 -0.32922506
000160 5c 4f 35 be 15 fc 8f 3c a6 b4 95 3e 2a d5 f6 3f
       -0.17706054 0.017576257 0.29239386 1.9283803
000170 2a c8 0c 3e b3 a3 0d bf f8 af 9a 3f 21 19 90 3e
       0.13748232 -0.5532791 1.2084951 0.28144172
000180 73 84 a7 be 84 57 40 3f e5 c0 0c bf 08 15 b0 3d
       -0.32718238 0.7513354 -0.54981834 0.085977614
000190 8c ff d5 3b 9c 81 00 3e f4 ff 4b 3e 8e 60 0c bf
       0.0065307077 0.12549442 0.19921857 -0.5483483
0001a0 1c 65 82 3d 2f 23 90 be 26 1a 82 3e ca ba 8c 3f
       0.06366941 -0.28151843 0.25410575 1.0994503
0001b0 fe 43 e9 bd 34 0a f1 3e e6 14 f2 3f 20 4c c5 bd
       -0.113899216 0.47078097 1.8912628 -0.0963366
0001c0 22 e3 5b bf fc a3 63 be 48 10 7d bf 12 8a fa be
       -0.8589345 -0.22230524 -0.9885297 -0.48933464
0001d0 9c a2 3d be 77 80 00 bf 0a d4 e5 be 18 0e 75 3e
       -0.18519062 -0.5019602 -0.44888335 0.23931158
0001e0 25 88 81 bf fc 03 63 3e 63 0e 1d be d3 93 ac 3f
       -1.0119673 0.22169489 -0.1533752 1.3482612
0001f0 53 1c 00 bf a0 06 43 3f e9 08 c3 3f 84 57 5c be
       -0.5004322 0.76181984 1.5237094 -0.2151776

end_conv.0.bn.weight f4 [8]
000000 b5 5c 07 3f 80 44 c5 3f f5 ae 68 3f c0 c7 94 3f
       0.52875835 1.541153 0.90891963 1.1623459
000010 80 b7 83 3f 6d 73 26 3f 5b c8 0d 3f 3d 98 49 3f
       1.0290375 0.65019876 0.55383843 0.7874792

end_conv.0.bn.bias f4 [8]
000000 33 9e cd bf ab 6d cb 3e b3 e4 97 bf cc 4f aa bd
       -1.6063904 0.39732108 -1.1866668 -0.08316001
000010 9d 81 07 3f b3 77 c2 bf b3 ed cb bf 34 b2 77 bf
       0.5293215 -1.5192779 -1.5931915 -0.9675629

end_conv.0.bn.running_mean f4 [8]
000000 38 72 19 bd 91 40 31 3e df 13 0a 3e fb b0 c9 3e
       -0.037462443 0.17309786 0.13484143 0.39392838
000010 cc a1 b1 bf fd a0 02 bd 0c 91 77 3e 1d b0 ce be
       -1.3877501 -0.03189181 0.24176425 -0.4036874

end_conv.0.bn.running_var f4 [8]
000000 b6 fc 68 3e 97 7a 4c 3f 5e a3 67 3e 24 9a be 3e
       0.22752652 0.7987456 0.22620913 0.37226975
000010 81 9b bb 3e 2e 76 9a 3e 70 54 95 3d 5d 06 eb 3e
       0.36642078 0.3016829 0.07291496 0.45903292

end_conv.0.attention.conv.weight f4 [1, 1, 3]
000000 b8 de 07 3e 2f 67 ac 3f 5d f9 4c 3f
       0.13268554 1.3468989 0.80068

end_conv.1.conv.weight f4 [3, 8, 3, 3]
000000 c8 4c 8f 3d 88 1e 4f 3e 8e 9a 37 3f 87 c5 dd 3e
       0.06997067 0.2022649 0.71720207 0.43314764
000010 b3 10 16 3f 16 d9 1a 3e d6 f9 2f 3f fd e6 d5 3e
       0.5861923 0.15121874 0.68740594 0.41777793
000020 21 c4 09 3f 6a 59 a4 be 60 58 cf be d0 99 be be
       0.53814894 -0.32099468 -0.40497112 -0.37226725
000030 3e 65 2f bf 56 65 dc be 8a 4d fe be be a3 20 be
       -0.6851386 -0.43046063 -0.49668533 -0.15687463
000040 91 ec 5b bf a6 b0 36 be fc 6e 10 3e 00 01 a6 be
       -0.85907847 -0.17840824 0.14104837 -0.32422638
000050 7e 9e ac 3e c6 eb 5c 3e 58 20 60 3f 00 4e 15 3d
       0.3371467 0.21574315 0.8754935 0.03645134
000060 e7 cb 44 3f 96 19 92 3d 84 b3 1b 3f 5a 1f 02 3f
       0.7687363 0.071337864 0.60820794 0.5082909
000070 ab 2f 10 3f b2 3c d5 3e 88 a3 3e 3f b7 0a 6d 3f
       0.56322736 0.4164787 0.7446828 0.92594475
000080 fc ee cf 3e 10 d6 a5 3e a7 28 0c 3f 43 ca 81 3e
       0.40612018 0.3238988 0.5474953 0.25349626
000090 20 32 57 3d e0 f1 5a be fd e6 90 be cc f7 88 be
       0.052538037 -0.2138133 -0.2830123 -0.26751554
0000a0 f6 73 6f bf c8 5a c3 be 38 ac d7 be 99 1f 32 bf
       -0.9353632 -0.38155198 -0.4212358 -0.69579464
0000b0 65 7b 59 bf de a6 14 3f a3 ea c7 3e f2 3b 78 3f
       -0.8495391 0.5806712 0.390462 0.9696647
0000c0 36 41 a5 3e f2 8c b4 3e 7d 7c 09 3f f0 e5 58 3f
       0.32276314 0.35263783 0.5370558 0.84725857
0000d0 10 d2 67 3e d9 60 5e 3f 3b 32 79 3d ff f5 8d 3e
       0.22638726 0.8686653 0.06083892 0.27726743
0000e0 05 30 13 3f 2c a3 de 3e 94 f7 a0 3d 05 44 9a 3e
       0.57495147 0.43483865 0.07859722 0.3013002
0000f0 0e ce 09 3e d6 13 7a 3e fa bb 42 3e 21 79 70 3d
       0.1345751 0.2442163 0.1901702 0.058709268
000100 d5 be 88 3c d6 db 5d be df c4 77 3e c7 67 7c 3c
       0.016692558 -0.21665892 0.24196194 0.015405602
000110 c9 ec e3 be 06 44 ce 3c 4e c1 17 bf 3a 94 31 bf
       -0.4451659 0.02517892 -0.59279335 -0.693668
000120 5d 55 45 3f 3a e2 20 3f 0c 55 24 3f f2 b8 74 bc
       0.7708338 0.62845194 0.6419227 -0.0149366725
000130 53 6f f0 3e a0 82 86 3e a3 8a 00 3f 04 bf 56 3f
       0.46959934 0.26271534 0.5021154 0.83885217
000140 ec e8 93 3e 90 7e 91 be e2 53 c5 be 74 1f 29 be
       0.28888643 -0.28416872 -0.3854056 -0.16515905
000150 8c 2e de be 54 05 02 bf db a9 1f bf 64 27 61 be
       -0.43394887 -0.5078938 -0.62368554 -0.21987683
000160 12 1f f9 be 56 c5 24 be 4c c0 11 3e 10 66 71 3e
       -0.48656517 -0.16090903 0.14233512 0.2357409
000170 90 32 22 be 84 ef db 3e 6d 19 9d 3f 92 d4 3c 3f
       -0.158396 0.42956173 1.2273384 0.73761857
000180 29 62 a3 be ea 50 00 3f 0f 49 2a 3f a7 be 08 3f
       -0.31910828 0.50123465 0.6651773 0.5341591
000190 16 5b ec 3e 44 e6 c4 3e ae d1 22 3f 34 0c 2f 3f
       0.46163243 0.3845693 0.63601196 0.68377995
0001a0 ef d2 04 3f b0 77 28 3e d6 79 fd 3e 75 f1 42 be
       0.5188436 0.16451907 0.49507016 -0.19037421
0001b0 30 5b e5 bd bb 0b 02 3d ed 3b 15 be 94 71 8b bd
       -0.11199033 0.03174947 -0.14573641 -0.06808773
0001c0 b2 67 6e bf 4a 99 93 be 9c 03 a3 be 16 e4 58 bf
       -0.93126976 -0.28827888 -0.3183869 -0.8472303
0001d0 a4 a3 5d bf dd 85 f2 3e d8 53 17 3f 13 2f 5d 3f
       -0.8657782 0.47367755 0.5911231 0.86399955
0001e0 52 65 6b be f7 29 72 3e 70 3b cd 3e a6 99 26 3c
       -0.2298787 0.23648821 0.4008441 0.010168469
0001f0 2e b1 04 3f 38 9a f0 3e 19 80 12 3f 7d b1 b0 3e
       0.51832855 0.4699266 0.5722671 0.34510413
000200 f1 b1 94 3e f2 0e 7d 3e 29 95 a7 bd 82 46 56 be
       0.2904201 0.24712732 -0.08182747 -0.20925334
000210 b4 3f a7 3e 62 4d 90 3e c4 ad fc 3d da b0 fc be
       0.3266579 0.28184038 0.12337831 -0.49353677
000220 53 1b 8b be 6d a3 b9 be f8 4d d5 bd 1e 7a c8 3e
       -0.27169284 -0.36257496 -0.10415262 0.39155668
000230 40 31 50 be 3b b3 49 bf dc cb de 3e fc 57 29 3e
       -0.20331287 -0.7878911 0.43514907 0.1653747
000240 56 c0 4b bc 96 db 9a 3e fa ff da 3e 32 bf d5 3c
       -0.012435993 0.30245656 0.4277342 0.026092146
000250 84 22 57 3e 0b 4f 79 bd 60 fc 1c 3f d0 1c 45 3e
       0.2100926 -0.060866397 0.61322594 0.19249272
000260 2b 2b 89 3e 48 c9 84 be 71 95 e3 be fc a2 63 be
       0.26790747 -0.25934815 -0.44449952 -0.22230142
000270 eb 51 1a bf 32 ee 85 bf e1 a2 d1 be 64 5f a0 be
       -0.60281247 -1.0463316 -0.4094458 -0.31322777
000280 0c 33 bd be b8 99 14 be 14 d9 1d bf bc 09 ae bd
       -0.36953008 -0.14511764 -0.6165936 -0.084979504
000290 93 60 31 be 1e 17 35 3e b4 fb a6 3f 0c 83 a5 3d
       -0.17321996 0.176846 1.3045564 0.08081636
0002a0 da d2 81 3e 32 b8 b2 3e 83 6b ec be 28 b1 d0 3e
       0.2535618 0.34906155 -0.46175775 0.4076016
0002b0 25 27 1c 3f 78 0f 53 3e 94 c9 39 3f ac c1 b0 3f
       0.6099723 0.2061137 0.7257321 1.3809104
0002c0 0e dd db 3e 30 0a 78 3e 2b a8 95 3e b2 5e 9f 3e
       0.4294209 0.24222636 0.29229864 0.31126934
0002d0 5e c1 16 3f 9d 24 8f be c4 f8 02 be b2 72 98 be
       0.58888805 -0.2795762 -0.12790209 -0.29775006
0002e0 07 30 58 bf 45 4e 52 bf c5 d4 27 bf af a2 6c bf
       -0.84448284 -0.8215068 -0.65559036 -0.92435735
0002f0 dc 7c f9 be 42 1b e9 3d 34 20 e3 3c 3f 70 0f 3f
       -0.48728073 0.11382152 0.027725317 0.5603065
000300 c5 12 93 3e 4f 84 8b 3e b8 d6 e5 3e 34 bc a9 3e
       0.28725258 0.2724938 0.4489038 0.331514
000310 28 df 59 3f 0a 16 fe 3e aa 78 b9 3e 02 20 27 3f
       0.85106134 0.4962619 0.36224872 0.65283215
000320 e7 9a f8 3e 36 dc d0 3e 55 dc 39 3f 8c 57 94 3e
       0.4855568 0.40793008 0.72601825 0.28973043
000330 e4 9b 0e 3f 0c a5 7b 3e 36 85 cf 3e 1e 60 34 3f
       0.5570662 0.24574679 0.4053132 0.70459163
000340 94 3d 7c be 6a 1b 4c 3e 1e c8 3d be aa 7f 10 3d
       -0.24632865 0.19932333 -0.1853337 0.035278
000350 fb 5d 89 3d f9 96 10 3f d6 de 54 be f4 21 9f 3e
       0.067073785 0.56480366 -0.2078813 0.31080592

end_conv.1.bn.weight f4 [3]
000000 f0 60 b9 3d 10 c9 be 3d 40 e5 c6 3d
       0.090516925 0.093156934 0.09711695

end_conv.1.bn.bias f4 [3]
000000 5d 4d 73 bd 5d 4d 73 bd 3f e5 6d bd
       -0.05939995 -0.05939995 -0.058079954

end_conv.1.bn.running_mean f4 [3]
000000 54 78 47 c0 94 97 2e c0 16 82 41 c0
       -3.1167192 -2.7280016 -3.0235648

end_conv.1.bn.running_var f4 [3]
000000 3d 14 d2 41 f4 9a 96 41 5f 42 cb 41
       26.259882 18.82566 25.407408
